Model
Model: "sequential_27"
________________________________________________________________________________
Layer (type)                        Output Shape                    Param #     
================================================================================
layer_1 (Dense)                     (None, 512)                     2880512     
________________________________________________________________________________
dropout_38 (Dropout)                (None, 512)                     0           
________________________________________________________________________________
layer_2 (Dense)                     (None, 128)                     65664       
________________________________________________________________________________
dropout_39 (Dropout)                (None, 128)                     0           
________________________________________________________________________________
layer_out (Dense)                   (None, 19)                      2451        
================================================================================
Total params: 2,948,627
Trainable params: 2,948,627
Non-trainable params: 0
________________________________________________________________________________


