Model
Model: "sequential_43"
________________________________________________________________________________
Layer (type)                        Output Shape                    Param #     
================================================================================
layer_1 (Dense)                     (None, 512)                     2880512     
________________________________________________________________________________
dropout_70 (Dropout)                (None, 512)                     0           
________________________________________________________________________________
layer_2 (Dense)                     (None, 64)                      32832       
________________________________________________________________________________
dropout_71 (Dropout)                (None, 64)                      0           
________________________________________________________________________________
layer_out (Dense)                   (None, 19)                      1235        
================================================================================
Total params: 2,914,579
Trainable params: 2,914,579
Non-trainable params: 0
________________________________________________________________________________


