Model
Model: "sequential_70"
________________________________________________________________________________
Layer (type)                        Output Shape                    Param #     
================================================================================
layer_1 (Dense)                     (None, 256)                     1440256     
________________________________________________________________________________
dropout_140 (Dropout)               (None, 256)                     0           
________________________________________________________________________________
layer_2 (Dense)                     (None, 128)                     32896       
________________________________________________________________________________
dropout_141 (Dropout)               (None, 128)                     0           
________________________________________________________________________________
layer_out (Dense)                   (None, 19)                      2451        
================================================================================
Total params: 1,475,603
Trainable params: 1,475,603
Non-trainable params: 0
________________________________________________________________________________


