Model
Model: "sequential_37"
________________________________________________________________________________
Layer (type)                        Output Shape                    Param #     
================================================================================
layer_1 (Dense)                     (None, 512)                     2880512     
________________________________________________________________________________
dropout_58 (Dropout)                (None, 512)                     0           
________________________________________________________________________________
layer_2 (Dense)                     (None, 256)                     131328      
________________________________________________________________________________
dropout_59 (Dropout)                (None, 256)                     0           
________________________________________________________________________________
layer_out (Dense)                   (None, 19)                      4883        
================================================================================
Total params: 3,016,723
Trainable params: 3,016,723
Non-trainable params: 0
________________________________________________________________________________


