Model
Model: "sequential_33"
________________________________________________________________________________
Layer (type)                        Output Shape                    Param #     
================================================================================
layer_1 (Dense)                     (None, 256)                     1440256     
________________________________________________________________________________
dropout_50 (Dropout)                (None, 256)                     0           
________________________________________________________________________________
layer_2 (Dense)                     (None, 256)                     65792       
________________________________________________________________________________
dropout_51 (Dropout)                (None, 256)                     0           
________________________________________________________________________________
layer_out (Dense)                   (None, 19)                      4883        
================================================================================
Total params: 1,510,931
Trainable params: 1,510,931
Non-trainable params: 0
________________________________________________________________________________


