Model
Model: "sequential_17"
________________________________________________________________________________
Layer (type)                        Output Shape                    Param #     
================================================================================
layer_1 (Dense)                     (None, 256)                     1440256     
________________________________________________________________________________
dropout_34 (Dropout)                (None, 256)                     0           
________________________________________________________________________________
layer_2 (Dense)                     (None, 64)                      16448       
________________________________________________________________________________
dropout_35 (Dropout)                (None, 64)                      0           
________________________________________________________________________________
layer_out (Dense)                   (None, 19)                      1235        
================================================================================
Total params: 1,457,939
Trainable params: 1,457,939
Non-trainable params: 0
________________________________________________________________________________


